discriminator.pth (torch, 575050 bytes, 7 tensors)

model.0.weight f4 [64, 3, 4, 4]
0	0x3d5b129e	0.05348455
1	0x3d534c41	0.051586393
2	0xbcec94ca	-0.028879542
3	0xbdc587ec	-0.09645066
4	0xbc2fdf4f	-0.010734393
5	0xbc3075be	-0.010770259
6	0x3d98ce8b	0.0746127
7	0x3d2e72b3	0.042589854
8	0xbe0ea7d4	-0.13931209
9	0xbaa0d524	-0.0012270552
10	0xbdcaf80b	-0.09910592
11	0xbc912205	-0.017716417
12	0x3cdd11dd	0.026986057
13	0xbdabd9c7	-0.08391147
14	0xbde6aff4	-0.11264029
15	0x3d2cdda8	0.042203575
16	0x3d9cb74b	0.07652148
17	0xbd5fbb2b	-0.054621857
18	0x3d9b8273	0.075932406
19	0x3cc31898	0.023815438
20	0x3d3c9dcd	0.046048928
21	0x3b334724	0.0027355636
22	0x3d86a3f8	0.06574243
23	0x3d1c1b40	0.038111925
24	0x3de89c85	0.11357979
25	0x3db230a4	0.08700684
26	0x3dcd5b4e	0.100271806
27	0x3d9c8960	0.0764339
28	0x3dca694d	0.09883366
29	0x3e1586ec	0.1460225
30	0x3d31f4f9	0.043446515
31	0x3c27ca4f	0.010241105
32	0xbd1c0c69	-0.038097773
33	0x3a52be6a	0.0008039238
34	0x3cb93163	0.022606557
35	0xbdbe3276	-0.092869684
36	0xbdc2ec53	-0.095177315
37	0x3d149a77	0.03628012
38	0xbe117001	-0.14202882
39	0xbc4c5b7e	-0.012472985
40	0xbe0bd607	-0.13655864
41	0xbdfacdbd	-0.12246273
42	0xbe0434a2	-0.12910703
43	0x3db9c9ab	0.09071668
44	0xbb4fe532	-0.0031722304
45	0xbdc17829	-0.09446747
46	0x3e085f3b	0.13317578
47	0xbdba884f	-0.0910803
48	0x3d173347	0.036914136
49	0xbb4fd80d	-0.003171447
50	0x3dc6338c	0.096778005
51	0xbdae1fed	-0.08502183
52	0x3d78da83	0.060755264
53	0xbd3b7123	-0.045762192
54	0x3df1780a	0.11790474
55	0x3da464c7	0.08027034
56	0xbd82f1d8	-0.06393784
57	0xbc300fa9	-0.010745921
58	0x3db3c13c	0.08777091
59	0xbd9f7bdf	-0.077872984
60	0x3d542b4d	0.051799107
61	0x3cb0cb96	0.021581452
62	0xbdad37cf	-0.0845791
63	0x3cab2b07	0.02089454
64	0x3b798946	0.0038076206
65	0x3e096ae0	0.13419676
66	0x3dcff28e	0.101536855
67	0xbdc2672e	-0.09492336
68	0x3d4dac8e	0.05021339
69	0xbdc4a042	-0.09600879
70	0xbca1ffd8	-0.019775316
71	0xbd6bbcff	-0.057553288
72	0xbdc05df3	-0.093929194
73	0xbdeee1ef	-0.11664187
74	0xbc972386	-0.018449556
75	0xbd0f3faa	-0.034972824
76	0xbc5ae0e3	-0.013359281
77	0x3cd5a361	0.026078882
78	0xbd46adb2	-0.048505493
79	0x3d93f0e9	0.07223684
80	0xbde6ec18	-0.112755
81	0x3df8167d	0.12113664
82	0x3dd7ad95	0.10531155
83	0x3bfe9808	0.0077695884
84	0x3e14d568	0.14534533
85	0xbdefe3c0	-0.11713362
86	0xbc982469	-0.01857205
87	0x3dff8029	0.124756165
88	0xbd44c912	-0.048043318
89	0xbded43df	-0.11585211
90	0x3c4a345b	0.012341584
91	0x3d8bcd23	0.06826236
92	0xbd711415	-0.058857042
93	0x3c4c4a6e	0.012468917
94	0xbd9a5c02	-0.0753708
95	0x3e088042	0.13330176
96	0x3993bdde	0.00028179487
97	0x3d0c4749	0.03424767
98	0xbd4ac677	-0.049505677
99	0xbbc84712	-0.006111988
100	0x3dbf4615	0.09339539
101	0xbd48efd7	-0.049056854
102	0x3d009459	0.031391475
103	0xbd3316a0	-0.04372275
104	0x3caf5af4	0.021405675
105	0xbdb528bf	-0.08845662
106	0xbdee9b7c	-0.1165075
107	0xbda50a12	-0.080585614
108	0xbda75645	-0.081707515
109	0x3c1d6d61	0.0096085975
110	0x3c998621	0.018740715
111	0x3d24d34a	0.040240563
112	0xbd3e737e	-0.04649686
113	0xbb7bac2a	-0.0038402178
114	0xbd2180e0	-0.039429545
115	0x3c9fa2f7	0.019486887
116	0xbd31e752	-0.043433495
117	0xbbea18bb	-0.0071440614
118	0xbdb01a55	-0.085987724
119	0x3dd09baa	0.101859406
120	0x3be93575	0.0071169683
121	0xbd666553	-0.056248974
122	0xbddb606b	-0.1071175
123	0x3d55ebd7	0.052226868
124	0xbc29f3b5	-0.010373046
125	0x3d6e0929	0.058114205
126	0xbd2e8c73	-0.04261441
127	0x3daf1689	0.0854922
128	0x3ca05ccf	0.019575505
129	0xbd7fb8d7	-0.062432136
130	0x3d8895ed	0.06669221
131	0xbddc3a0e	-0.107532606
132	0x3da12100	0.078676224
133	0x3da79d30	0.08184278
134	0x3d10f12f	0.03538626
135	0xbdae5fd0	-0.085143685
136	0xbd91a6bc	-0.0711188
137	0x3b4a6720	0.0030884221
138	0xbdef8ffb	-0.11697384
139	0x3d0089d5	0.031381447
140	0xb97efeb5	-0.00024318213
141	0xbdc6b1b9	-0.09701867
142	0xbd9dd6a1	-0.07706953
143	0x3dda0830	0.10646093
144	0xbd9e26cf	-0.07722246
145	0x3df876b2	0.12132014
146	0x3de13661	0.109967
147	0x3e1905df	0.14943646
148	0xbdf625fa	-0.12018962
149	0xbe0b2141	-0.13586904
150	0xbe25dfd5	-0.16198666
151	0xbdee9116	-0.11648767
152	0x3e615a98	0.22007215
153	0x3d7c5bf3	0.061611127
154	0x3de5808f	0.11206161
155	0xbd189f7a	-0.037261464
156	0xbdd54a90	-0.10414612
157	0xbe0659be	-0.13120171
158	0x3e0a8e1b	0.13530771
159	0xbd2cdb32	-0.04220123
160	0xbdedd1fe	-0.116123185
161	0x3de8b256	0.1136214
162	0x3dc3f723	0.09568622
163	0x3bdafc02	0.0066828737
164	0xbe11fc9e	-0.14256522
165	0xbda37276	-0.07980816
166	0xbd4862eb	-0.04892246
167	0xbd3f101c	-0.046646222
168	0x3d552036	0.052032672
169	0x3dfef94c	0.12449893
170	0xbdd3a531	-0.10334242
171	0x3a1ee4cf	0.0006061317
172	0x3da2b748	0.079451144
173	0x3dc48a4d	0.09596691
174	0xbdb46b13	-0.08809485
175	0x3d9fdc78	0.07805723
176	0xbce4d17e	-0.027931925
177	0x3dba1c94	0.09087482
178	0xbd3a6203	-0.045503628
179	0xbdbbd7f4	-0.09172049
180	0xbe113119	-0.14178886
181	0xbdfbf603	-0.123027824
182	0x3dd8135e	0.10550569
183	0x3dc62e6a	0.096768215
184	0x3ceaaebe	0.028647777
185	0x3c9a8133	0.018860435
186	0x3def87c7	0.11695819
187	0x3c054a78	0.0081354305
188	0xbc1925fb	-0.009347434
189	0x3d88fefb	0.06689259
190	0xbdb0305c	-0.08602974
191	0xbcb86548	-0.022509232
192	0x3d9d8a85	0.07692436
193	0x3d07bb7d	0.033137787
194	0xbc9d5a4d	-0.019208098
195	0x3c7208b2	0.014772581
196	0x3deb3202	0.114841476
197	0x3dcddd66	0.10051994
198	0xbcc14e82	-0.023597006
199	0xbd06bda7	-0.03289571
200	0x3dae353f	0.0850625
201	0xbc5cc0a4	-0.0134736635
202	0x3c009144	0.007847134
203	0x3da2edb0	0.079554915
204	0x3dbc2d9f	0.09188389
205	0x3e0019dd	0.12509866
206	0x3e0488f2	0.12942865
207	0xbdf33737	-0.11875766
208	0xbd6ef960	-0.05834329
209	0xbda7ddab	-0.08196577
210	0xbe03970e	-0.12850592
211	0x3dc5756a	0.096415356
212	0xbdaa08d8	-0.08302468
213	0x3cbb2867	0.022846414
214	0xbd0774d9	-0.03307042
215	0xbdfe7dd9	-0.12426347
216	0xbbf12a6d	-0.007359794
217	0xbdca398e	-0.09874259
218	0xbe02b88c	-0.12765712
219	0xbc5d0b63	-0.013491484
220	0xbde4dc14	-0.11174789
221	0xbd8da46b	-0.06916126
222	0xbe0272b4	-0.12739068
223	0x3d93f18f	0.07223808
224	0xbd376d74	-0.044782117
225	0x3dc5910b	0.096468054
226	0x3dbd88f8	0.0925464
227	0xbdd8bad7	-0.10582512
228	0xbd1ebf45	-0.038756628
229	0x3d2efc59	0.042721126
230	0xbc46d614	-0.012136001
231	0x3dcbda00	0.099536896
232	0xbdb66bde	-0.08907293
233	0x3deee00f	0.116638295
234	0x3d013e03	0.03155328
235	0x3dbf3d4f	0.093378656
236	0x3c9498e1	0.018139305
237	0x3dc67708	0.09690672
238	0xbdc88f41	-0.097929485
239	0xbd47d20e	-0.048784308
240	0x3d90dfa0	0.07073903
241	0xbdd7d331	-0.105383284
242	0xbc6ea9a7	-0.014566815
243	0x3e117612	0.14205196
244	0x3d341978	0.0439696
245	0x3cf30062	0.029663268
246	0x3c971b0f	0.01844552
247	0x3d72f892	0.059319086
248	0xbe28e7f2	-0.1649473
249	0xbda03b70	-0.07823837
250	0x3da42919	0.08015651
251	0x3c33310f	0.010936989
252	0x3d9e5546	0.07731108
253	0x3cd97837	0.02654658
254	0xbd9cd279	-0.07657332
255	0xbd214845	-0.039375562

model.2.weight f4 [128, 64, 4, 4]
0	0xbbb740ea	-0.005592455
1	0x3cf4955b	0.029856374
2	0xbbcb4155	-0.0062028565
3	0xbc1b8ed3	-0.009494501
4	0xbc630ab6	-0.013857534
5	0xbc969295	-0.018380443
6	0x3cc423da	0.023942877
7	0x3c950508	0.018190876
8	0xbd3ef60a	-0.04662136
9	0x3c563efb	0.013076539
10	0xbcf183dc	-0.02948182
11	0xbd23b389	-0.03996614
12	0xbd4aab72	-0.04947991
13	0x3d1a3487	0.03764775
14	0xbb28cd0e	-0.0025756988
15	0x3b9955a6	0.0046793995
16	0xbcdd0274	-0.026978709
17	0xbc86677f	-0.016406773
18	0xbc01b24f	-0.007916047
19	0x3c5045a0	0.012711912
20	0xbc4ae2ff	-0.012383222
21	0x3cc56e36	0.024100404
22	0x3d7a8bf4	0.061168626
23	0x3bb03196	0.005377005
24	0xbcc9d993	-0.02463988
25	0x3d0b0ca4	0.033947602
26	0x3c621b47	0.013800449
27	0x3cb39122	0.02191979
28	0x3c1a906e	0.009433849
29	0x3cab090b	0.020878335
30	0x3cef3a08	0.029202476
31	0xbd28da77	-0.04122397
32	0xbce81028	-0.028328016
33	0x3c6a236e	0.014290674
34	0xbccaa594	-0.024737157
35	0x3c978f9d	0.018501097
36	0xbc275b9d	-0.010214713
37	0x3ca5368c	0.020167612
38	0x3c74efb1	0.014949725
39	0xbc6f89b6	-0.014620235
40	0x3c0ec04e	0.008712841
41	0x3c5ae7e9	0.013360956
42	0xbc9f74e3	-0.019464916
43	0x3c5f06ee	0.013612492
44	0xbcf8dd21	-0.03037888
45	0xbb057dc2	-0.0020369147
46	0xbd08ade5	-0.033368964
47	0x3c89b6c5	0.016810784
48	0x3c3fc9a8	0.011705793
49	0x3c18fe5d	0.009337989
50	0x3c66af03	0.014079812
51	0xbc4ad46f	-0.01237975
52	0xbd4dcda7	-0.050244953
53	0x3c797fa2	0.015228184
54	0xbd82d7db	-0.063888274
55	0xbd07556b	-0.033040445
56	0xbc2eb946	-0.01066429
57	0xbd06aeed	-0.032881666
58	0xbd6525fa	-0.05594442
59	0xbcc8d33d	-0.024514789
60	0xbce82e57	-0.028342409
61	0x3c9193ba	0.017770637
62	0x3c23ae32	0.009990262
63	0xbc43a1ca	-0.011940429
64	0x3c236a84	0.009974126
65	0x3bad36a9	0.005286057
66	0x3d59270d	0.053015757
67	0x3cad2668	0.021136478
68	0xbb384e3a	-0.0028122799
69	0xbc82d482	-0.015970472
70	0x3d256ab8	0.040384978
71	0x3b47b707	0.0030474083
72	0xbd46e80a	-0.048561133
73	0xbc32fa98	-0.010924004
74	0xbafbd42a	-0.001921301
75	0xbcd1f551	-0.025629671
76	0xbc8f1f4d	-0.01747098
77	0xbc3f95c6	-0.011693424
78	0x3b30ffde	0.0027007977
79	0xbbdd7241	-0.006758005
80	0x3bd1e044	0.0064049084
81	0x3c7b6222	0.015343221
82	0x3c79ab25	0.015238558
83	0xba836424	-0.0010024351
84	0x3cdfe90f	0.02733281
85	0x3d2537bf	0.040336367
86	0x3c0501be	0.008118091
87	0x3d44ee46	0.048078798
88	0x3b6f2517	0.0036490613
89	0xbba55fd4	-0.005046824
90	0x3c4aef2a	0.012386123
91	0x3d950ad1	0.07277454
92	0xbc966bfa	-0.018362034
93	0x3ca6e564	0.020373054
94	0x3c235af3	0.009970414
95	0xbcbc14c6	-0.022959124
96	0xbca2b25e	-0.019860443
97	0xbb0a0fc4	-0.0021066526
98	0xbd112cf8	-0.035443276
99	0x3cb36486	0.02189852
100	0xbbed48ef	-0.0072413604
101	0xbb9e340c	-0.004827982
102	0xbc99f3cc	-0.01879301
103	0x3c5d1857	0.013494573
104	0xbaa83730	-0.001283383
105	0x3b4112af	0.00294606
106	0xbc35ee8c	-0.011104237
107	0xbac85a3e	-0.0015285683
108	0xbcc03824	-0.02346427
109	0xbcde201f	-0.027114926
110	0xbd0487a7	-0.03235593
111	0x3c71ec31	0.014765785
112	0xbc829be4	-0.015943475
113	0xbd06b1de	-0.03288447
114	0x3d80764c	0.06272563
115	0xbd0e9223	-0.034807336
116	0xbca0ffeb	-0.019653281
117	0x3d6a7ebd	0.057249773
118	0xbdf78b93	-0.120871685
119	0x3b88cad2	0.0041745687
120	0x3bc27ed7	0.0059355306
121	0xbd94b90d	-0.07261858
122	0xbcfb7ca3	-0.03069908
123	0xbd479c6d	-0.048733164
124	0x3d1b173f	0.037863966
125	0xbad69efc	-0.0016374285
126	0xbd1ee27d	-0.038790215
127	0xbd556c24	-0.052105084
128	0xbb72008c	-0.0036926595
129	0xbc847d81	-0.016173126
130	0x3c9b00ae	0.018921223
131	0xbce32100	-0.027725697
132	0x3ca3b457	0.019983454
133	0x3c0c0519	0.008546137
134	0xbca238c4	-0.019802459
135	0xbc87024d	-0.01648059
136	0xbac30c80	-0.0014881045
137	0x3c58241b	0.013192202
138	0xbca4f63b	-0.020136943
139	0xbb84fef4	-0.004058713
140	0x3ca1c039	0.01974498
141	0xbb9e3d50	-0.0048290864
142	0xbba23d5b	-0.004951162
143	0xbcbc2eb7	-0.022971494
144	0xbc768dab	-0.015048425
145	0xbc26a23e	-0.0101705175
146	0xbcab3a89	-0.020901935
147	0x3cdbdc82	0.026838545
148	0xbca8f520	-0.020624697
149	0xbc65b30b	-0.014019738
150	0x3c777264	0.015102956
151	0x3c3a1ee2	0.011359902
152	0x3c74ac06	0.014933592
153	0xbae1c591	-0.0017225017
154	0xbb8ce667	-0.004299927
155	0x3bb75000	0.0055942535
156	0xbb9e2c9c	-0.004827095
157	0xbc7e9ee6	-0.015540814
158	0xbb9e98cb	-0.0048399917
159	0x3cc8714b	0.024468085
160	0x3b568616	0.003273373
161	0x3c63499f	0.013872533
162	0x3c90e1da	0.01768582
163	0x3cd67c1a	0.026182223
164	0x3c98f34a	0.018670697
165	0x3cd5031a	0.026002456
166	0xb8b43e9c	-8.594731e-05
167	0x3c4a2c08	0.012339599
168	0xbc2cc1db	-0.010544266
169	0xbd30de74	-0.043180898
170	0xbc2d0a01	-0.010561467
171	0xbd19a210	-0.03750807
172	0x3d001d49	0.03127793
173	0xbc17e086	-0.009269839
174	0xbd099a17	-0.033594217
175	0xbcb37ad6	-0.021909159
176	0xbbd0187a	-0.006350574
177	0xbc4fcaa0	-0.012682587
178	0xbb16d2d9	-0.0023013859
179	0xb9afe2cc	-0.00033547578
180	0xbc3bf940	-0.011473
181	0xbc63cb34	-0.013903428
182	0xba2318ba	-0.0006221641
183	0xbc2685b8	-0.010163717
184	0xbba8ff84	-0.005157413
185	0xbcbcf39a	-0.023065377
186	0xb8db1b4f	-0.000104478204
187	0xbcf666d6	-0.030078333
188	0xbd1f13d5	-0.038837273
189	0xbc7157ee	-0.014730437
190	0x3b088bf1	0.0020835365
191	0xbce38b45	-0.02777637
192	0xbd40e80b	-0.047096293
193	0xbb89c284	-0.0042040963
194	0xbcf89430	-0.030344099
195	0x3bca99ae	0.006182871
196	0x3c586a14	0.013208885
197	0x3d076e10	0.03306395
198	0xbc5a5dbb	-0.013328011
199	0x3bcc62bf	0.0062373574
200	0xbb4d6c96	-0.003134524
201	0x3ca818b8	0.0205196
202	0x3c339f74	0.01096331
203	0xbbdb2ae2	-0.0066884616
204	0x3c23c3e3	0.0099954335
205	0x3a1aa77b	0.00058995903
206	0xbd33bba5	-0.043880124
207	0xbcb2de1c	-0.021834426
208	0xbcfc265e	-0.030780014
209	0x3c1741ea	0.009232024
210	0xbd29f63f	-0.041494604
211	0xbd79edf9	-0.061017964
212	0xbd8eb799	-0.06968612
213	0xbcb3dd8f	-0.021956233
214	0x3ba6ed2a	0.00509419
215	0xbd8fb938	-0.070177495
216	0xbd49ea4d	-0.049295712
217	0xbc4ad341	-0.012379468
218	0xbceed35e	-0.029153522
219	0xbd974ff2	-0.07388295
220	0xbd8b37b8	-0.06797737
221	0x3bea0866	0.0071421145
222	0xbd77a285	-0.060457725
223	0xbc3385d5	-0.010957201
224	0xbd103edf	-0.03521621
225	0x3c0a892c	0.008455556
226	0x3bf43004	0.007452013
227	0x3d19ba4e	0.03753119
228	0xbd5f804f	-0.054565724
229	0xbb554be5	-0.0032546457
230	0xbc73d804	-0.014883045
231	0x3c837719	0.016048001
232	0xbcc2c034	-0.02377329
233	0x3cae000c	0.021240257
234	0xbd3d21de	-0.046174876
235	0xbb73523a	-0.0037127868
236	0xbb88ed52	-0.0041786814
237	0x3d04b8dc	0.03240286
238	0x3d03b370	0.032153547
239	0x3d6f18b8	0.058373183
240	0x3ad4a964	0.0016224799
241	0xbc2d1fde	-0.01056668
242	0x3bf33f95	0.007423351
243	0x3ced111a	0.028938819
244	0xbca88e31	-0.020575615
245	0xbb56c0a2	-0.0032768627
246	0xbd1b60ae	-0.037933998
247	0xbcf2f598	-0.029658124
248	0xba8b6c3a	-0.0010637112
249	0xbaeb1d58	-0.0017937822
250	0x3c4b9d58	0.01242765
251	0xbc10fafa	-0.0088489
252	0xbbd13d2f	-0.0063854675
253	0x3c746bb4	0.014918257
254	0x3a60924e	0.0008566723
255	0xbc49a76f	-0.012307986

model.3.weight f4 [128]
0	0x3f8af217	1.085513
1	0x3f89f452	1.0777686
2	0x3f91a7c8	1.1379328
3	0x3f866780	1.0500336
4	0x3f95e985	1.171189
5	0x3f88fd71	1.0702344
6	0x3f8898a1	1.0671579
7	0x3f8a9774	1.082747
8	0x3f950865	1.1643187
9	0x3f8d5076	1.104018
10	0x3f876966	1.057904
11	0x3f8f93c4	1.121697
12	0x3f8f2565	1.1183287
13	0x3f87fd36	1.0624149
14	0x3f91033a	1.132911
15	0x3f93b947	1.1540917
16	0x3f983ff2	1.1894515
17	0x3f882e7b	1.0639185
18	0x3f94691c	1.1594577
19	0x3f87d047	1.0610436
20	0x3f879fdd	1.0595661
21	0x3f9aed12	1.2103598
22	0x3f9a1cb9	1.2040015
23	0x3f8cde9e	1.1005437
24	0x3f937e66	1.1522949
25	0x3f88cb9d	1.0687138
26	0x3f8ed276	1.1157978
27	0x3f8d7a1f	1.1052893
28	0x3f8f28e8	1.1184359
29	0x3f8d4724	1.1037335
30	0x3f8bfbe3	1.0936245
31	0x3f985028	1.1899462
32	0x3f8c1e19	1.0946685
33	0x3f8bce23	1.0922283
34	0x3f85a2b7	1.0440282
35	0x3f872230	1.0557308
36	0x3f8f747a	1.1207421
37	0x3f8a68fc	1.0813289
38	0x3f86cd9e	1.0531499
39	0x3f901e83	1.1259311
40	0x3f8edb6a	1.116071
41	0x3f9504b5	1.1642061
42	0x3f88f09a	1.0698426
43	0x3f894096	1.0722835
44	0x3f871dc9	1.0555965
45	0x3f89da77	1.0769795
46	0x3f88a61e	1.0675695
47	0x3f8a3e90	1.0800343
48	0x3f8bd6c1	1.0924913
49	0x3f8de086	1.1084144
50	0x3f89c96b	1.0764593
51	0x3f86d90d	1.0534989
52	0x3f876557	1.0577801
53	0x3f922d2b	1.1420034
54	0x3f88fe26	1.070256
55	0x3f88095e	1.0627859
56	0x3f910eb0	1.1332607
57	0x3f8bb816	1.0915554
58	0x3f8e55de	1.1119955
59	0x3f88d3aa	1.0689595
60	0x3f95f4ca	1.1715329
61	0x3f8b67bc	1.0891032
62	0x3f888ccf	1.0667971
63	0x3f8bfafd	1.093597
64	0x3f8ab12a	1.0835316
65	0x3f8aa4e2	1.0831568
66	0x3f913a43	1.1345905
67	0x3f8cea1d	1.1008946
68	0x3f8d73b0	1.105093
69	0x3f94bd42	1.1620257
70	0x3f866af2	1.0501387
71	0x3f89a24e	1.0752656
72	0x3f897447	1.073861
73	0x3f9b5b5b	1.2137254
74	0x3f869ac0	1.0515976
75	0x3f875157	1.0571698
76	0x3f8ccb4e	1.0999544
77	0x3f862fd8	1.0483351
78	0x3f8a568a	1.080766
79	0x3f86b91e	1.0525243
80	0x3f96c6ed	1.1779457
81	0x3f93710f	1.1518878
82	0x3f9320e6	1.1494415
83	0x3f8a9271	1.082594
84	0x3f8aac8e	1.083391
85	0x3f85fc41	1.0467607
86	0x3f93b0d5	1.153834
87	0x3f901e51	1.1259252
88	0x3f959e02	1.1688845
89	0x3f8cf09d	1.1010929
90	0x3f898a6e	1.074537
91	0x3f93642d	1.1514946
92	0x3f936466	1.1515014
93	0x3f917522	1.1363871
94	0x3f8e629d	1.1123844
95	0x3f92f22e	1.1480157
96	0x3f965cbb	1.1747049
97	0x3f89bf02	1.0761416
98	0x3f921d80	1.1415253
99	0x3f91419f	1.1348151
100	0x3f88edf7	1.0697621
101	0x3f8575f4	1.0426621
102	0x3f8ab90f	1.0837725
103	0x3f9272ca	1.1441281
104	0x3f8df8ce	1.1091554
105	0x3f872ad0	1.055994
106	0x3f8b638f	1.0889758
107	0x3f86b732	1.0524657
108	0x3f8d14a2	1.1021922
109	0x3f873351	1.0562536
110	0x3f87c384	1.0606542
111	0x3f89edea	1.0775731
112	0x3f8ac165	1.0840269
113	0x3f8f3a28	1.1189623
114	0x3f91f7dc	1.1403766
115	0x3f92e8db	1.1477312
116	0x3f897edd	1.0741841
117	0x3f89974a	1.0749295
118	0x3f879f84	1.0595555
119	0x3f8be165	1.092816
120	0x3f968f44	1.1762471
121	0x3f9257c7	1.1433038
122	0x3f8be722	1.0929911
123	0x3f8bfe96	1.0937068
124	0x3f90dc6d	1.1317269
125	0x3f8bfc73	1.0936416
126	0x3f92376e	1.1423166
127	0x3f939f84	1.1533055

model.3.bias f4 [128]
0	0x3d9ca830	0.07649267
1	0x3d5c300d	0.053756762
2	0x3c174ca1	0.009234578
3	0x3d6b601e	0.05746471
4	0x3cf6adc0	0.030112147
5	0x3d7384a7	0.05945268
6	0x3d561db8	0.052274436
7	0xbd4be967	-0.049783137
8	0x3db5fb9b	0.088858806
9	0xbd4621cf	-0.048372086
10	0x3d7f2ece	0.062300496
11	0xbc6ac576	-0.014329305
12	0x3dbf2d23	0.09334781
13	0xbdb76655	-0.08955065
14	0x3c331040	0.010929167
15	0x3d88f2e0	0.0668695
16	0x3d50e81d	0.05100261
17	0x3d839c69	0.06426317
18	0x3c3561d7	0.01107069
19	0x3d648c36	0.055797778
20	0x3d543d93	0.051816534
21	0x3e019700	0.12655258
22	0x3d4f2587	0.0505729
23	0xbd93e8bf	-0.07222127
24	0x3cb2c84c	0.021824025
25	0x3d3cbca3	0.046078335
26	0x3b91e5ea	0.0044524567
27	0x3d27beaa	0.040953316
28	0x3dd23c54	0.10265413
29	0x3dc1cd51	0.09462989
30	0x3cf33827	0.029689861
31	0x3da88bfd	0.08229826
32	0x3db7ff30	0.0898422
33	0x3da4541b	0.08023854
34	0x3d1041f5	0.03521915
35	0x3b4a2e4a	0.0030850344
36	0x3d58ac5a	0.052898742
37	0x3af1eb2f	0.0018456931
38	0x3d1c3800	0.038139343
39	0xbe04a2b5	-0.12952693
40	0x3d6f9d5d	0.058499683
41	0x3cc1aa92	0.023640905
42	0x3d120521	0.035649423
43	0xbd456ee9	-0.048201475
44	0x3d637d58	0.05553946
45	0x3dc79ca6	0.09746675
46	0x3cc45cd9	0.023970054
47	0x3d2bbde7	0.041929152
48	0xbc12b4cc	-0.008954238
49	0xbb238a5c	-0.0024954295
50	0x3d850783	0.06495573
51	0x3d772a69	0.06034318
52	0x3d425014	0.04743965
53	0x3c0178a8	0.007902302
54	0x3d387fda	0.045043804
55	0x3d68d261	0.056841258
56	0x3c68e432	0.014214562
57	0xbaef22ff	-0.0018244683
58	0xbc75fde2	-0.015014144
59	0xbd88cc71	-0.06679619
60	0x3d6c407c	0.057678685
61	0xbbc7d417	-0.006098281
62	0x3d3f21d5	0.046663124
63	0x3d9a9ea3	0.07549789
64	0xbc97b132	-0.01851711
65	0x3dbcfea9	0.0922826
66	0xbc1ef6ef	-0.009702428
67	0x3dd36db7	0.10323661
68	0xbba8093f	-0.0051280553
69	0x3d8dce72	0.06924142
70	0x3d2f34fc	0.04277514
71	0x3b097cd2	0.002097894
72	0x3d1583a2	0.036502488
73	0xbce9d55d	-0.028544122
74	0x3d267668	0.040640265
75	0x3d21ca0f	0.03949934
76	0x3d1bc83f	0.038032766
77	0x3d628558	0.055302948
78	0x3ccf3571	0.025294038
79	0x3d133f68	0.03594914
80	0xbac98b75	-0.0015376644
81	0xbc710be0	-0.014712304
82	0x3db9e303	0.09076502
83	0x3d1d403f	0.038391348
84	0xbd198ddd	-0.037488807
85	0x3c4fb32d	0.012676996
86	0x3d9a0d0e	0.07522021
87	0xbd88b2eb	-0.06674751
88	0xbacbff9e	-0.0015563851
89	0x3d7d699b	0.06186829
90	0x3ce2998d	0.02766111
91	0x3b0751dc	0.0020648157
92	0xbdaa6bc0	-0.08321333
93	0x3e1de500	0.15419388
94	0xbcfbb72c	-0.030726992
95	0x3d86caf9	0.06581683
96	0x3e01685f	0.1263747
97	0x3da06969	0.078326054
98	0xbe47f93e	-0.19528672
99	0x3d395fc4	0.045257345
100	0x3d52f628	0.051504284
101	0x3d54d480	0.05196047
102	0x3d11d67e	0.035604946
103	0x3d6681ea	0.05627624
104	0x3daac0e6	0.08337574
105	0x3ca02143	0.01954711
106	0x3dafa6ac	0.08576712
107	0x3d1ee8c6	0.03879621
108	0x3d9a0cb0	0.07521951
109	0x3d89b758	0.06724423
110	0x3d98c6c0	0.074597836
111	0xbc892799	-0.016742514
112	0xbd65146f	-0.05592769
113	0x3c90b510	0.017664462
114	0xba2e0d52	-0.0006639558
115	0x3dd0734a	0.1017824
116	0x3d6b0eaf	0.05738705
117	0x3d6f20d6	0.058380924
118	0x3d135616	0.03597077
119	0x3d2bf430	0.041980922
120	0x3d6f303c	0.05839561
121	0xbd254462	-0.040348418
122	0xbc91f4c4	-0.017816909
123	0x3d4f4548	0.05060318
124	0xbbb0fc61	-0.0054011797
125	0x3ca25956	0.01981799
126	0x3b94e4d9	0.0045438823
127	0xbd3240cd	-0.04351883

model.3.running_mean f4 [128]
0	0x3a122e3f	0.0005576349
1	0xbd077577	-0.033071008
2	0xbdd5d791	-0.10441507
3	0xbda5ae99	-0.080899425
4	0xbbeb3e70	-0.007179074
5	0xbd08cbf6	-0.033397637
6	0x3a87c005	0.0010356909
7	0x3d63dbd0	0.05562955
8	0xbd92c51c	-0.07166502
9	0x3d810892	0.06300463
10	0xbe0e5c80	-0.13902473
11	0x3daac7a8	0.08338863
12	0xbcbcc458	-0.023042843
13	0xbc85343d	-0.01626026
14	0x3c3922b1	0.011299775
15	0xbca6cee3	-0.020362323
16	0xbd30cf59	-0.043166492
17	0x3db22163	0.08697774
18	0x3ac1dab8	0.0014789915
19	0x3e201f2c	0.15636891
20	0xbd4804a8	-0.048832566
21	0xbd5c346e	-0.05376094
22	0x3bcbccd4	0.006219486
23	0x3e85899c	0.2608155
24	0x3cac2358	0.021012947
25	0x3c07c5eb	0.008286933
26	0xbc607aea	-0.01370118
27	0x3d8d394f	0.06895696
28	0xbd585c8c	-0.052822635
29	0xbcb9135f	-0.022592245
30	0x3afabc8a	0.0019129675
31	0xbd83065e	-0.06397699
32	0x3adfdfc0	0.0017080233
33	0x3d0de3d9	0.03464112
34	0xbd0f5278	-0.034990758
35	0xbd4d5de4	-0.05013837
36	0xbd27465c	-0.040838584
37	0x3dd51177	0.10403722
38	0xbc3cab91	-0.011515514
39	0x3eb057f8	0.34442115
40	0xbc83ac1b	-0.016073277
41	0xbd22bf21	-0.039733056
42	0xbd007a14	-0.031366423
43	0x3e575a24	0.2103048
44	0xbd513732	-0.05107803
45	0xbd9e5f32	-0.07733001
46	0x3dda04e9	0.10645468
47	0x3ded1b60	0.11577487
48	0x3c330cd4	0.010928351
49	0xbe0b1757	-0.13583122
50	0x3d74b55a	0.059743263
51	0x3db2c1ba	0.08728357
52	0x3dde48b0	0.10853708
53	0xbd8db2e1	-0.06918884
54	0xbd57d806	-0.05269625
55	0x3d32ca82	0.043650158
56	0x3c17a288	0.009255059
57	0x3d470ac5	0.048594255
58	0x3c3e0356	0.011597475
59	0xbdedca79	-0.11610884
60	0xbb31f7cb	-0.0027155753
61	0x3b9811c3	0.0046407892
62	0x3da77f9f	0.08178639
63	0xbb40cbc5	-0.002941833
64	0x3daf815d	0.08569596
65	0xbd51442d	-0.051090408
66	0x3c967536	0.018366437
67	0xbd507b54	-0.050898865
68	0xbb0fdf47	-0.0021953152
69	0xbce338c2	-0.027737025
70	0xbda4179c	-0.08012316
71	0x3ba53ed4	0.00504289
72	0xbc9e3982	-0.019314531
73	0x3e196b97	0.14982449
74	0xbdab9f2a	-0.083799675
75	0x3dc86573	0.09784975
76	0xbd8bfb4d	-0.06835041
77	0x3d030f43	0.031996977
78	0x3e3acbb6	0.18241772
79	0xbcbe7823	-0.023250645
80	0x3e300b18	0.17191732
81	0x3c99124c	0.018685482
82	0xbd68c9ad	-0.056832958
83	0x3c0d1a4d	0.008612228
84	0x3af3c4fb	0.0018598133
85	0x3daa03b2	0.08301486
86	0x3c3a32d5	0.011364658
87	0xbccb5d63	-0.024824804
88	0xbd0ead74	-0.034833387
89	0x36b722e0	5.457885e-06
90	0x3da3ba57	0.07994526
91	0xbd8b10f1	-0.06790341
92	0x3db4040a	0.08789833
93	0xbe355b7d	-0.17710681
94	0x386c6510	5.6360906e-05
95	0xbd9d9f1c	-0.07696363
96	0xbc3a8609	-0.0113844955
97	0xbd9748aa	-0.073869064
98	0x3e9383f2	0.28811604
99	0xbc933e57	-0.017974062
100	0x3c71056c	0.014710765
101	0x3e13b9fa	0.14426413
102	0x3d05e325	0.032687325
103	0x3cb14e9e	0.021643933
104	0xbc2197a6	-0.009862816
105	0x3e471f6d	0.19445582
106	0xbb6a943e	-0.0035793926
107	0x3df7839e	0.12085651
108	0x3cbb72f3	0.02288196
109	0xbd15cb00	-0.03657055
110	0x3e23af24	0.1598478
111	0x3d50faf8	0.051020592
112	0xbd223b6a	-0.039607443
113	0xbd8c925a	-0.06863852
114	0x3db80e8c	0.089871496
115	0x3dad71ab	0.08468946
116	0xbc026f65	-0.007961129
117	0x3d06611b	0.03280745
118	0x3da9a66b	0.08283695
119	0xbb565db4	-0.003270966
120	0xbbc9126a	-0.0061362283
121	0xbcf94554	-0.030428566
122	0x3d8053a8	0.06265956
123	0x3d04186d	0.032249857
124	0xbcbced68	-0.023062423
125	0xbda92219	-0.08258457
126	0xbd0b3b9c	-0.033992395
127	0x3dc4d3fc	0.09610745

model.3.running_var f4 [128]
0	0x3ac79c2e	0.001522904
1	0x3bb7d657	0.005610268
2	0x3bdcebd2	0.006741979
3	0x3c8604a9	0.016359644
4	0x3bdd1882	0.0067473063
5	0x3ca164b6	0.019701343
6	0x3c64ceae	0.013965292
7	0x3c32be4e	0.01090963
8	0x3c265a05	0.010153298
9	0x3c1ccc8e	0.009570254
10	0x3c38bd25	0.011275564
11	0x3c4e168f	0.012578621
12	0x3bdbd7ec	0.0067090895
13	0x3bf7cbc4	0.0075621326
14	0x3be317fe	0.0069303503
15	0x3c0b9cc1	0.00852126
16	0x3bc899b7	0.00612184
17	0x3ca83198	0.02053146
18	0x3bd72128	0.006565232
19	0x3c4c47b6	0.012468269
20	0x3cd00c3a	0.025396455
21	0x3be5a2f0	0.007007949
22	0x3c043a14	0.0080704875
23	0x3c75387d	0.014967081
24	0x3b92d49b	0.004480911
25	0x3baad716	0.0052136285
26	0x3bf7368d	0.0075443448
27	0x3c554349	0.01301653
28	0x3bc980e6	0.006149399
29	0x3b3cb223	0.0028792701
30	0x3c36ab12	0.011149185
31	0x3c0be147	0.008537597
32	0x3b41e459	0.0029585569
33	0x3bab484a	0.0052271234
34	0x3c42bb44	0.011885468
35	0x3c1ac1dc	0.009445634
36	0x3bd22102	0.0064126262
37	0x3c20f599	0.00982418
38	0x3c5f71ab	0.01363794
39	0x3c807656	0.015681427
40	0x3bcdbf37	0.006278898
41	0x3bce3fef	0.0062942426
42	0x3c13cdad	0.009021205
43	0x3c1e9dee	0.009681208
44	0x3c84e23a	0.016221154
45	0x3bce52e1	0.006296501
46	0x3c9c0620	0.01904589
47	0x3c648fa5	0.013950263
48	0x3b8187e8	0.003952969
49	0x3be5d775	0.00701421
50	0x3c72d7ce	0.01482196
51	0x3cd78964	0.02631063
52	0x3bf13a3b	0.007361678
53	0x3c30cb00	0.0107905865
54	0x3c56de35	0.013114502
55	0x3c09aa79	0.00840246
56	0x3be786f1	0.007065647
57	0x3c4f39ad	0.012648028
58	0x3bf9dda0	0.0076252967
59	0x3c091609	0.00836707
60	0x3bb0e8be	0.005398839
61	0x3b9b5d3c	0.004741339
62	0x3c70b76e	0.014692171
63	0x3b478376	0.0030443347
64	0x3c10c02f	0.008834883
65	0x3bb9e839	0.005673435
66	0x3c2bb65c	0.01048049
67	0x3baaac80	0.005208552
68	0x3ad3e0d2	0.0016165024
69	0x3bbcea42	0.0057652304
70	0x3c28ceb8	0.010303192
71	0x3c10824a	0.008820126
72	0x3c79466b	0.015214543
73	0x3c8341f7	0.016022665
74	0x3c770aa1	0.015078218
75	0x3c881d90	0.016615659
76	0x3c1500ae	0.0090944
77	0x3c58f42a	0.013241807
78	0x3c783e24	0.015151534
79	0x3c42eaf5	0.011896838
80	0x3c6e367b	0.014539356
81	0x3b8ac4a2	0.0042348662
82	0x3c053be8	0.008131959
83	0x3b9459cb	0.0045273057
84	0x3bd3ff9f	0.0064696814
85	0x3c57c2a6	0.013168966
86	0x3c5186fa	0.012788529
87	0x3c1516de	0.00909969
88	0x3c061536	0.008183768
89	0x3b4779c3	0.0030437566
90	0x3c555e79	0.013023012
91	0x3bac33cf	0.0052551995
92	0x3c4cdfae	0.012504501
93	0x3c5ae0df	0.0133592775
94	0x3bd83ed8	0.0065992884
95	0x3c147d29	0.009063044
96	0x3c003e49	0.00782735
97	0x3c0fb56a	0.00877128
98	0x3ca25560	0.0198161
99	0x3bd4e9fb	0.006497619
100	0x3bfa0507	0.007629994
101	0x3c94066b	0.018069467
102	0x3c1ebcea	0.009688595
103	0x3bbad5a4	0.0057017375
104	0x3bd788d2	0.0065775895
105	0x3c6ce068	0.0144577995
106	0x3ae25c87	0.0017270007
107	0x3ca55882	0.020183805
108	0x3c653460	0.013989538
109	0x3c13d13e	0.009022055
110	0x3c92fb18	0.017941996
111	0x3c2aa3e7	0.010415054
112	0x3bf07271	0.007337861
113	0x3c80a932	0.015705679
114	0x3bc0b41a	0.005880845
115	0x3c00de44	0.007865492
116	0x3b8b748a	0.004255836
117	0x3bedc714	0.007256398
118	0x3c4dd10a	0.012562046
119	0x3b604d6e	0.003422584
120	0x3bea206d	0.0071449787
121	0x3be2f656	0.006926338
122	0x3c7147bb	0.0147265745
123	0x3c423f87	0.011855966
124	0x3bed41b8	0.0072405003
125	0x3c17e0d2	0.00926991
126	0x3c09bbe8	0.008406617
127	0x3c2f9ebd	0.0107189985

model.6.weight f4 [1, 8192]
0	0x3d85a943	0.06526425
1	0xbce6c7b1	-0.028171392
2	0xbcafd4e0	-0.021463811
3	0xbcc03114	-0.023460902
4	0xbcf21d03	-0.02955485
5	0xbcc01b81	-0.023450615
6	0xbc880ca8	-0.016607597
7	0xbd2371a5	-0.0399033
8	0x3d88be2e	0.06676899
9	0xbbb86873	-0.0056276857
10	0xbca2ed4b	-0.01988854
11	0xbc96baa2	-0.01839954
12	0xbcbab9ae	-0.022793617
13	0xbb9011f6	-0.0043966724
14	0xbc4ba574	-0.012429584
15	0xbcaef252	-0.021355782
16	0x3d857480	0.06516361
17	0xbc9a9517	-0.01886992
18	0xbcfc3ca4	-0.030790634
19	0xbd152137	-0.03640863
20	0xbc9a395a	-0.018826175
21	0xbca69ea1	-0.020339312
22	0xbbdf3005	-0.0068111443
23	0xbcfdf4c8	-0.03100051
24	0x3d8e363d	0.06943939
25	0xbc9f00c5	-0.019409547
26	0x3b03cd02	0.0020111208
27	0xbc993193	-0.018700397
28	0xbd09565d	-0.033529628
29	0xbcf49084	-0.029854067
30	0xbc988f2e	-0.01862296
31	0xbd251fc6	-0.040313505
32	0x3d95f3cf	0.073218934
33	0xbc252f33	-0.010082054
34	0xbc99a303	-0.018754488
35	0xbbe07ee6	-0.006851065
36	0xbce5427e	-0.027985808
37	0xbce4ec9b	-0.027944854
38	0xbcd108f1	-0.025516959
39	0xbd29270c	-0.041297004
40	0x3d928314	0.071539074
41	0xbbc94315	-0.00614203
42	0xbccfa39a	-0.025346566
43	0xbd2fa7fd	-0.042884815
44	0xbcf9e26c	-0.030503474
45	0xbd39fa84	-0.045404926
46	0xbcccefbd	-0.02501666
47	0xbd0a0e5c	-0.0337051
48	0x3d88a8c1	0.06672812
49	0xbb8769db	-0.004132492
50	0xbd360a6d	-0.044443537
51	0xbce693fb	-0.028146734
52	0xbd124775	-0.035712678
53	0xbd20b9cb	-0.039239686
54	0xbd1c24a4	-0.03812088
55	0xbd53c561	-0.051701907
56	0x3d5e657e	0.05429601
57	0x3b291caf	0.002580445
58	0xb94cb2cc	-0.00019521563
59	0xbbe4336d	-0.0069641382
60	0xbc5f1394	-0.013615508
61	0xbc37b20e	-0.011211885
62	0xba32c59f	-0.0006819609
63	0xbc1994c8	-0.009373851
64	0x3d2be065	0.041962046
65	0x3d6cc731	0.05780715
66	0x3d8a7088	0.06759745
67	0x3d973f6c	0.07385144
68	0x3da6f1a3	0.08151557
69	0x3da15018	0.07876605
70	0x3d94d82b	0.07267793
71	0x3d9a32fd	0.075292565
72	0xbc814d24	-0.015783854
73	0x3c19f759	0.009397351
74	0x3ca141b1	0.019684644
75	0x3ba634fb	0.0050722337
76	0x3c863641	0.016383292
77	0x3c8b09ec	0.016972505
78	0x3c673d59	0.0141137475
79	0x3b3c66c5	0.002874778
80	0xbd2c461b	-0.042059045
81	0xbc704175	-0.014664044
82	0xbbc5ffb8	-0.006042447
83	0x3cd166ea	0.025561769
84	0x3c9aea01	0.01891041
85	0x3b2fe872	0.002684143
86	0x3aa6f796	0.0012738581
87	0xbc8d1037	-0.017219646
88	0xbd051e5f	-0.032499667
89	0x3ad80796	0.0016481753
90	0xbcc8e103	-0.024521356
91	0xbc17e3c5	-0.009270613
92	0xbc76230c	-0.015023004
93	0xbc54b080	-0.012981534
94	0xbd110f26	-0.035414837
95	0x3b823f17	0.003974806
96	0x3a88c37e	0.0010434238
97	0x3cc83943	0.024441367
98	0x3cbd3a47	0.023099078
99	0x3b69a428	0.0035650823
100	0x3cbd4a7d	0.023106808
101	0x3cddb9c2	0.027066115
102	0x3c495543	0.012288394
103	0x3b8a0eb4	0.0042131785
104	0xbb30772a	-0.0026926496
105	0x3cdc87f7	0.026920302
106	0x3d013331	0.03154296
107	0x3d3ccc69	0.04609338
108	0x3d058505	0.03259756
109	0x3d0bc97c	0.034127697
110	0x3ce77003	0.028251654
111	0xbb17a816	-0.0023140959
112	0xba8a1d33	-0.0010537266
113	0xbb29e13d	-0.0025921606
114	0x3b3423ea	0.0027487227
115	0xbc2dc7c8	-0.010606714
116	0x3d820504	0.06348613
117	0x3bd733f2	0.0065674717
118	0x3d0ea612	0.034826346
119	0xbb1608e1	-0.0022893476
120	0xbbcf631d	-0.006328954
121	0xbcd4fe28	-0.026000097
122	0xbc8bf53c	-0.01708471
123	0xbc43643a	-0.011925751
124	0xbb1d9ad9	-0.0024048595
125	0x3bf3f521	0.007444993
126	0xbbf368a9	-0.007428248
127	0xba3cb692	-0.0007198836
128	0xbd809c8e	-0.062798604
129	0x3d04aee7	0.032393362
130	0x3d6cc312	0.05780322
131	0x3d92e5d9	0.07172746
132	0x3da5cd26	0.080957696
133	0x3d33ed8e	0.04392772
134	0x3c49ad7c	0.012309428
135	0xbd8d2b5f	-0.06893038
136	0xbdc008d5	-0.093766846
137	0xbd2e47f3	-0.042549085
138	0xbd3a84ff	-0.04553699
139	0xbc9805f7	-0.018557532
140	0xbd031bc8	-0.032008916
141	0xbcede3a5	-0.029039213
142	0xbcd90134	-0.026489832
143	0xbd91f19b	-0.07126161
144	0xbe001208	-0.12506878
145	0xbdbf62ec	-0.0934504
146	0xbdba7383	-0.09104063
147	0xbd5bbdd1	-0.05364782
148	0xbc511e12	-0.012763517
149	0xbd7cf336	-0.06175538
150	0xbd9ae2e4	-0.07562807
151	0xbdc835b1	-0.09775866
152	0xbdee2a2a	-0.11629136
153	0xbd9c1ffa	-0.076232865
154	0xbd1ce9e7	-0.038309004
155	0xbd1f0b38	-0.03882906
156	0xb8aeb92e	-8.331459e-05
157	0xbc4bd116	-0.012439987
158	0xbd93cc84	-0.07216743
159	0xbdb74a9b	-0.08949777
160	0xbddc0fae	-0.10745178
161	0xbd92f22c	-0.07175097
162	0xbcf972cc	-0.030450247
163	0x3c8ef254	0.017449535
164	0xbcf9874b	-0.03046002
165	0xbca5108e	-0.020149495
166	0xbdb7807d	-0.08960054
167	0xbdd87308	-0.105688155
168	0xbd92c8df	-0.07167219
169	0xbc968a11	-0.018376382
170	0xbd528741	-0.05139852
171	0xbd7507ed	-0.05982201
172	0xbc9901c7	-0.018677605
173	0xbd01a28d	-0.03164916
174	0xbd8efd18	-0.069818676
175	0xbda479af	-0.08031022
176	0xbd941141	-0.072298534
177	0xbcfc03d4	-0.030763544
178	0xbd37023d	-0.04467987
179	0xbd36e5e4	-0.044652835
180	0xbcfccc4c	-0.030859135
181	0xbd25866a	-0.04041139
182	0xbd019d65	-0.031644244
183	0xbd840554	-0.06446329
184	0xbdad0942	-0.084490314
185	0xbd8b7e8b	-0.068112455
186	0xbda2962c	-0.07938799
187	0xbd91a1ba	-0.07110925
188	0xbd540e77	-0.051771607
189	0xbd51668c	-0.051123187
190	0xbdc3a13b	-0.09552237
191	0xbdc32ce0	-0.095300436
192	0xbd882818	-0.06648272
193	0x3c0827ca	0.008310268
194	0x3bc9bc82	0.006156505
195	0xbb6c08dc	-0.0036016023
196	0xbc27fec1	-0.010253609
197	0xbcdfbda8	-0.027312115
198	0xbd1bb4a5	-0.038014073
199	0xbd815907	-0.06315809
200	0xbd708b51	-0.058726612
201	0x3c67a702	0.014138939
202	0xbc16459c	-0.00917187
203	0x3c3a4012	0.011367815
204	0x3bc7dc9a	0.006099296
205	0x3ceb3bb7	0.028714998
206	0x3cd15579	0.025553452
207	0x3b6f9e2e	0.0036562788
208	0xbcbe4367	-0.0232255
209	0x3c8ee708	0.017444149
210	0x3cafb88e	0.021450307
211	0x3d0782af	0.033083614
212	0x3c54fb5d	0.012999383
213	0x3ccfdd77	0.025374157
214	0x3d2f0476	0.042728864
215	0x3c35efeb	0.011104564
216	0xbd854b40	-0.065084934
217	0x3cbcfa99	0.023068713
218	0x3cc91557	0.024546308
219	0x3d64e263	0.05587996
220	0x3d2fc1c1	0.042909387
221	0x3d0adc8a	0.03390173
222	0x3d2b13aa	0.0417668
223	0x3bc5289f	0.0060168053
224	0xbca7c577	-0.0204799
225	0x3c9aad75	0.018881539
226	0xbbcb327a	-0.0062010856
227	0x3d50320a	0.05082897
228	0x3c028036	0.007965138
229	0x3d07dcca	0.033169545
230	0x3d19cad0	0.037546933
231	0x3d3e4914	0.04645641
232	0xbd00fe76	-0.031492673
233	0x3d5999d5	0.05312522
234	0x3d09ddc4	0.033658758
235	0x3d3809c6	0.044931196
236	0x3adc3e8f	0.0016803312
237	0x3c88096c	0.016606055
238	0x3c3822c9	0.011238762
239	0x3bebd138	0.0071965717
240	0xbd26485e	-0.04059636
241	0x3c0e84ed	0.008698684
242	0x3cec2065	0.02882404
243	0x3d2902da	0.041262485
244	0x3c18a2da	0.009316171
245	0x3cfe6aa1	0.031056704
246	0x3cf2073a	0.029544462
247	0x3d1ca98e	0.038247637
248	0xbc0c168f	-0.0085503
249	0x3bf8f52f	0.0075975875
250	0x3cc6e88a	0.024280805
251	0x3c6907a3	0.014223012
252	0x3cec0ad3	0.028813755
253	0x3d0732e3	0.033007514
254	0x3c790fa3	0.015201482
255	0x3d34adc0	0.044111013
